Model: "model_1"
__________________________________________________________________________________________________
Layer (type)                    Output Shape         Param #     Connected to                     
==================================================================================================
input_2 (InputLayer)            [(None, 224, 224, 3) 0                                            
__________________________________________________________________________________________________
conv2d_10 (Conv2D)              (None, 112, 112, 32) 864         input_2[0][0]                    
__________________________________________________________________________________________________
batch_normalization_10 (BatchNo (None, 112, 112, 32) 128         conv2d_10[0][0]                  
__________________________________________________________________________________________________
activation_10 (Activation)      (None, 112, 112, 32) 0           batch_normalization_10[0][0]     
__________________________________________________________________________________________________
conv2d_11 (Conv2D)              (None, 112, 112, 64) 18496       activation_10[0][0]              
__________________________________________________________________________________________________
batch_normalization_11 (BatchNo (None, 112, 112, 64) 256         conv2d_11[0][0]                  
__________________________________________________________________________________________________
activation_11 (Activation)      (None, 112, 112, 64) 0           batch_normalization_11[0][0]     
__________________________________________________________________________________________________
max_pooling2d_4 (MaxPooling2D)  (None, 56, 56, 64)   0           activation_11[0][0]              
__________________________________________________________________________________________________
conv2d_13 (Conv2D)              (None, 56, 56, 48)   27648       max_pooling2d_4[0][0]            
__________________________________________________________________________________________________
batch_normalization_13 (BatchNo (None, 56, 56, 48)   192         conv2d_13[0][0]                  
__________________________________________________________________________________________________
activation_13 (Activation)      (None, 56, 56, 48)   0           batch_normalization_13[0][0]     
__________________________________________________________________________________________________
conv2d_12 (Conv2D)              (None, 56, 56, 64)   36864       max_pooling2d_4[0][0]            
__________________________________________________________________________________________________
conv2d_14 (Conv2D)              (None, 56, 56, 64)   76864       activation_13[0][0]              
__________________________________________________________________________________________________
batch_normalization_12 (BatchNo (None, 56, 56, 64)   256         conv2d_12[0][0]                  
__________________________________________________________________________________________________
batch_normalization_14 (BatchNo (None, 56, 56, 64)   256         conv2d_14[0][0]                  
__________________________________________________________________________________________________
activation_12 (Activation)      (None, 56, 56, 64)   0           batch_normalization_12[0][0]     
__________________________________________________________________________________________________
activation_14 (Activation)      (None, 56, 56, 64)   0           batch_normalization_14[0][0]     
__________________________________________________________________________________________________
add_1 (Add)                     (None, 56, 56, 64)   0           activation_12[0][0]              
                                                                 activation_14[0][0]              
__________________________________________________________________________________________________
concatenate_2 (Concatenate)     (None, 112, 56, 64)  0           max_pooling2d_4[0][0]            
                                                                 add_1[0][0]                      
__________________________________________________________________________________________________
conv2d_16 (Conv2D)              (None, 112, 56, 64)  36864       concatenate_2[0][0]              
__________________________________________________________________________________________________
batch_normalization_16 (BatchNo (None, 112, 56, 64)  256         conv2d_16[0][0]                  
__________________________________________________________________________________________________
activation_16 (Activation)      (None, 112, 56, 64)  0           batch_normalization_16[0][0]     
__________________________________________________________________________________________________
conv2d_17 (Conv2D)              (None, 112, 56, 96)  55392       activation_16[0][0]              
__________________________________________________________________________________________________
batch_normalization_17 (BatchNo (None, 112, 56, 96)  384         conv2d_17[0][0]                  
__________________________________________________________________________________________________
activation_17 (Activation)      (None, 112, 56, 96)  0           batch_normalization_17[0][0]     
__________________________________________________________________________________________________
conv2d_15 (Conv2D)              (None, 56, 28, 64)   36864       concatenate_2[0][0]              
__________________________________________________________________________________________________
conv2d_18 (Conv2D)              (None, 56, 28, 64)   55360       activation_17[0][0]              
__________________________________________________________________________________________________
batch_normalization_15 (BatchNo (None, 56, 28, 64)   256         conv2d_15[0][0]                  
__________________________________________________________________________________________________
batch_normalization_18 (BatchNo (None, 56, 28, 64)   256         conv2d_18[0][0]                  
__________________________________________________________________________________________________
activation_15 (Activation)      (None, 56, 28, 64)   0           batch_normalization_15[0][0]     
__________________________________________________________________________________________________
activation_18 (Activation)      (None, 56, 28, 64)   0           batch_normalization_18[0][0]     
__________________________________________________________________________________________________
max_pooling2d_5 (MaxPooling2D)  (None, 56, 28, 64)   0           concatenate_2[0][0]              
__________________________________________________________________________________________________
max_pooling2d_6 (MaxPooling2D)  (None, 28, 28, 64)   0           max_pooling2d_4[0][0]            
__________________________________________________________________________________________________
concatenate_3 (Concatenate)     (None, 196, 28, 64)  0           activation_15[0][0]              
                                                                 activation_18[0][0]              
                                                                 max_pooling2d_5[0][0]            
                                                                 max_pooling2d_6[0][0]            
__________________________________________________________________________________________________
conv2d_19 (Conv2D)              (None, 98, 14, 64)   36928       concatenate_3[0][0]              
__________________________________________________________________________________________________
batch_normalization_19 (BatchNo (None, 98, 14, 64)   256         conv2d_19[0][0]                  
__________________________________________________________________________________________________
activation_19 (Activation)      (None, 98, 14, 64)   0           batch_normalization_19[0][0]     
__________________________________________________________________________________________________
max_pooling2d_7 (MaxPooling2D)  (None, 48, 6, 64)    0           activation_19[0][0]              
__________________________________________________________________________________________________
dropout_2 (Dropout)             (None, 48, 6, 64)    0           max_pooling2d_7[0][0]            
__________________________________________________________________________________________________
flatten_1 (Flatten)             (None, 18432)        0           dropout_2[0][0]                  
__________________________________________________________________________________________________
dense_2 (Dense)                 (None, 128)          2359424     flatten_1[0][0]                  
__________________________________________________________________________________________________
dropout_3 (Dropout)             (None, 128)          0           dense_2[0][0]                    
__________________________________________________________________________________________________
dense_3 (Dense)                 (None, 2)            258         dropout_3[0][0]                  
==================================================================================================
